src/model/artifacts/non_linear_regression_model.pth (torch, 13239 bytes, 5 tensors)

layers.0.weight f4 [64, 8]
00000000: 1c0d c53e 66ed 67be 626b 05bd 187c 3d3e
00000010: af6b 193e c453 59be eb1c aabe c535 80be
00000020: f4fc 7a3e 1c9c 903e e73c ba3d 8238 5a3e
00000030: 335d 803e 8cf6 c13c 233f 633e ad97 babd
00000040: 5ee2 5c3e b2a5 98bd 1ec6 8cbe 1b64 3fbe
00000050: 1349 913e d3f0 703e 96fa 97be 9f48 8ebe
00000060: 7271 ab3e a0ba 9abe 3505 5fbe 274e 833e
00000070: da33 373e 1fca 8ebe 4b93 7f3e 4e09 46be
00000080: ddf8 8abe b1de 473e 377f 8ebe ced0 f03c
00000090: 7f2c 983c e434 403e 2507 70bd 0744 453e
000000a0: ff79 813e e91f a3be 47b9 8d3e df9c 26be
000000b0: f2c8 15bd 9b92 c53c 53e2 96be 5e37 ae3c
000000c0: 371e 743e 74e9 55bd 9404 5abd e61e cdbe
000000d0: ef94 86be f22b 6b3e b195 aebd fdc8 a1be
000000e0: 717d 323e 2bc4 8dbe e206 f2bd b939 3dbe
000000f0: 59f1 eb3a 51f8 93be c740 68be d0b2 863e
00000100: 081a 353d 53ad af3e 9da0 8ebe 42a0 8e3e
00000110: c78b c1be dd9c 863e 684e 1b3e 9249 7fbe
00000120: 1b65 a23e 9729 16be 3f96 ee3d 049e bebd
00000130: 131f 1d3d 9252 a03d 1b5e 0c3e 2d74 15be
00000140: c400 90be 6c4b 3fbb 0d99 1dbe 39f1 a43d
00000150: 9735 1c3e 060c cbbe 6203 bebe 2828 47be
00000160: 2b54 ae3e 70fe b33d ab66 233e 928f 00bd
00000170: 470d 08be 0109 babe d4d4 c3be 4e58 bf3d
00000180: 4cb4 adbc e988 ebbd 14c4 dbbc d2bb 6e3e
00000190: 3241 debd d08e 5e3d 4575 183e 6b85 ac3e
000001a0: 2175 913e 5d5a 983e d60c 703e 4551 01be
000001b0: bc27 06bd ed2e 5b3e 9a10 0a3e 04d1 b13e
000001c0: 87bc 58bd 7b78 d23d 5614 e73c 54c7 423c
000001d0: 79a1 3c3e 0396 cebc f908 98be e223 b7be
000001e0: fd40 2fbe 2f25 d5bc 18b6 60be 420f 033e
000001f0: 0ca1 cfbc e411 85be 579f 443e 14e2 babc
00000200: 6f02 a6be 7053 403e 8559 033d 50ad 97be
00000210: d064 8fbe 9e79 bd3d 25c6 5e3d 1361 fdbd
00000220: 61ac 71be 2be6 f3bd 601b 733e 1229 d73d
00000230: d93b 3f3e 5f60 943e ea72 a43e 7db5 b1be
00000240: 06be 993e 921a 66be 53ac b73e a479 153e
00000250: 540c 89bd 317d 1dbe 94ed 46be 9ca3 c1be
00000260: 01ee 13bd 9f54 713e 2b72 aabe 5d7e 44bd
00000270: ccb5 063e 968d 253e 1088 8c3e 299b 2f3e
00000280: f089 a6be fe69 5cbe 8a66 77be 2eb8 253e
00000290: 1d1e 113e eb09 8abe 9c9f a73e b6de 66be
000002a0: 9069 84be b041 9abe 0679 ecbd ea37 1dbd
000002b0: ccc6 48bc 0efe 6b3d 9b2d e83d 3323 a63d
000002c0: ea21 90be 58d6 893d f6b2 ab3e bfc1 a3be
000002d0: 35df 313e 7bdf bb3c d891 a93d e5ee 30be
000002e0: a55e 6ebe 82c9 cf3c f778 04bd 9272 1e3c
000002f0: cc09 bc3e 0365 0bbe c359 bbbe 890c 2e3e
00000300: e49a 20bd 3251 99be a3ac 233e 1a51 b4be
00000310: eae8 a2bd ea50 8abe b864 643e a43a 3dbe
00000320: eca9 813e ae2e 383e 88af 453e 1f2c 62be
00000330: 49e6 0bbe c6db 1bbe 1b5f 44be 55e6 8ebe
00000340: 0ca5 813e 5331 5dbd 288b 0fbe 96cc 963e
00000350: 2f17 b43e f851 61be 7f15 713d 65b3 83be
00000360: 292e 703e f091 f5bd 8278 58be c114 283e
00000370: a9b8 353d d84a 57be 48dd 883e 6d85 1b3e
00000380: 0422 1d3c 9664 94be 9287 b83d 8fcf e1bc
00000390: 212c a4be cc58 433e 8262 61be 4d10 903e
000003a0: 354e 933e 8ab0 5d3d 16b7 aebd d2e2 d4bc
000003b0: 00e3 1d3c ada7 443e e21a 9d3e 13cd 14bb
000003c0: 01d0 22be 67ee 1ebe 037d 673d 62d7 65be
000003d0: 9ca6 8fbe 55ed a6be 8c85 1bbe 4f14 033e
000003e0: ff0e 753e 3fa0 653e e30d e2bd 81f9 2dbe
000003f0: 3363 3c3c 8506 4cbe ba81 a6be eed4 afbe
0.38486564 -0.22649154 -0.03257311 0.1850437 0.14982484 -0.2122336 -0.33225188 -0.25041023
0.24510556 0.28244102 0.090936475 0.21310619 0.25071105 0.023677133 0.22192053 -0.09110961
0.21570727 -0.07453479 -0.274949 -0.18690531 0.28376064 0.23529367 -0.2968337 -0.2778978
0.3348499 -0.3022051 -0.2177933 0.25645563 0.17890874 -0.2788858 0.24958532 -0.19339487
-0.27142993 0.19518544 -0.27831432 0.02939644 0.018575905 0.18770176 -0.058600564 0.19264232
0.25288388 -0.31860283 0.27680418 -0.16270779 -0.03656859 0.024117758 -0.29469547 0.021266636
0.23839651 -0.05222459 -0.053227022 -0.40062636 -0.26285502 0.22965983 -0.08524645 -0.31598654
0.17430665 -0.27688727 -0.11817719 -0.1847905 0.0018001004 -0.28900388 -0.2268096 0.26308298
0.04421428 0.34311923 -0.27856913 0.27856642 -0.37801954 0.26291552 0.15166628 -0.24930409
0.31717762 -0.14664303 0.11649751 -0.09307483 0.038359713 0.07828249 0.13707773 -0.14595099
-0.28125584 -0.0029189242 -0.15390415 0.08053822 0.15254818 -0.3965761 -0.37111956 -0.19448912
0.3404859 0.087887645 0.15957133 -0.03138692 -0.13286315 -0.36334994 -0.38248312 0.09343015
-0.021204136 -0.11500723 -0.026826896 0.23313835 -0.10852279 0.054335415 0.14888485 0.3369554
0.28409675 0.29756442 0.23442397 -0.12628658 -0.032752737 0.2140462 0.13482895 0.3472978
-0.05291417 0.10276886 0.02820794 0.011888344 0.18420972 -0.025218016 -0.29694346 -0.35769564
-0.17114635 -0.026018707 -0.21944463 0.12798789 -0.025345348 -0.25990212 0.19201408 -0.02281288
-0.32423732 0.18781829 0.032067794 -0.29624414 -0.280066 0.09251712 0.054388184 -0.12372031
-0.23600914 -0.119091354 0.23740911 0.105058804 0.18675174 0.28979775 0.32118922 -0.34708777
0.3002779 -0.22471073 0.3587366 0.14597183 -0.066918045 -0.15379788 -0.19426566 -0.37820137
-0.03611565 0.23567437 -0.33290228 -0.047972072 0.13155288 0.16167292 0.27447557 0.17149033
-0.32527113 -0.21524808 -0.2416021 0.1618354 0.14171644 -0.26960692 0.3273896 -0.22545895
-0.25861788 -0.3012824 -0.11546521 -0.038383402 -0.012254428 0.057615332 0.113368236 0.081121825
-0.28150874 0.06730336 0.33534974 -0.31983754 0.17370303 0.022933712 0.082797706 -0.17278631
-0.23278292 0.025364641 -0.032341924 0.00967087 0.36726224 -0.13612752 -0.3659192 0.1699697
-0.039210215 -0.2994476 0.15983824 -0.35218126 -0.07954581 -0.27014858 0.22304046 -0.18479401
0.25324953 0.17986557 0.19305241 -0.22087143 -0.13662066 -0.15220556 -0.19176905 -0.27910104
0.25321233 -0.054002117 -0.14017928 0.29452962 0.35173938 -0.22003925 0.05885839 -0.25722805
0.23455109 -0.11990726 -0.2113972 0.16414167 0.04436556 -0.21024644 0.26731324 0.15187617
0.0095906295 -0.2898299 0.09010233 -0.027564792 -0.32064918 0.19076842 -0.22010234 0.28137437
0.28770605 0.05412344 -0.085310146 -0.025987063 0.009636641 0.19204588 0.30684572 -0.0022705242
-0.1589966 -0.15520631 0.056515705 -0.22445443 -0.280568 -0.32602945 -0.15187663 0.12800716
0.23931502 0.2242441 -0.11037805 -0.1698971 0.01149826 -0.19924362 -0.3252085 -0.3434214

layers.0.bias f4 [64]
00000000: 9486 c23e 384c b53e 29f7 26be d089 0abe
00000010: 0a6b 0fbd 79b2 6c3e 77ad ae3e d9b5 b6bd
00000020: 903c 9c3d 6a08 97bc 537c 3dbd 3786 89bd
00000030: 1391 143e 5fa6 ddbd fba7 fd3d 9a26 4cbd
00000040: 3196 5a3e 936e fcbd de60 523e d9e4 dc3c
00000050: 2143 7b3d 71de 2e3b 0a69 cbbd 327b 8e3e
00000060: 06f4 91be 00f3 d33c 45e7 97bc 35b0 a13e
00000070: bc60 813e 9304 9d3d 377e ecbd 7bf5 f1bc
00000080: 91cc 823e bb7a 6abe d3cf 683b 715d 7f3e
00000090: 9cad 19bd 3708 9dbe 3446 af3c 8042 993e
000000a0: 8437 cdbd cb13 233e 59a9 853d 375e bf3e
000000b0: 479f febc da2c 9bbe 9f4e 5f3e bd9f 8bbe
000000c0: 0ae2 003e fd95 233c b5ed a23e f00b d1bd
000000d0: 1522 62be 6de5 9dbe 3bf5 52bd 2170 36be
000000e0: 44f6 253e 89e0 59bd 366b ba3e 7528 923c
000000f0: db18 18be bbc1 693d fe0c b13e d2bf 9a3e
0.379933 0.35409713 -0.16305222 -0.13529134 -0.03501419 0.23114957 0.34116718 -0.089214034
0.07628739 -0.01843663 -0.046261143 -0.067150526 0.14508466 -0.108227484 0.12385555 -0.0498415
0.21346356 -0.12325778 0.20544764 0.026964592 0.061343316 0.0026682878 -0.09932144 0.27828366
-0.28506488 0.025872707 -0.018542895 0.31579748 0.25269115 0.07666888 -0.11547511 -0.029536
0.25546697 -0.2289838 0.0035524264 0.24937989 -0.037519082 -0.3067033 0.02139578 0.29933548
-0.100203544 0.15925519 0.06526441 0.37376568 -0.031081809 -0.30307657 0.21807335 -0.27270308
0.12586227 0.00998449 0.3182198 -0.10207355 -0.22083314 -0.308391 -0.0515034 -0.17816211
0.16207224 -0.05319265 0.3640992 0.017841557 -0.14853232 0.05706952 0.34580225 0.30224472

layers.2.weight f4 [32, 64]
00000000: c6a3 baba fc7e b23d ef2f 84bd 1409 533c
00000010: 1c9c a23d ef69 eebd ad20 ff3c f8a6 433c
00000020: 154b 93bc 489a 7d3d fa5c 08be 5d29 003d
00000030: bff6 b33d 720f 0ebe 19b5 17be 1448 2b3d
00000040: 3ae8 c43d 84db 7fbd 312f a8bc f018 2a3d
00000050: e1bd edbd 99ab c43a 3ca6 7abc 67d8 e3bc
00000060: 16f3 c7bd 8ba1 d6bd c5ac ba3d f1d5 143b
00000070: 4247 50bd d28d a83d d272 05be bf8b 24bd
00000080: f701 713d 2176 df3b e877 453d debc c23d
00000090: 7b0b a3bd 73c1 dd3d 11a8 08bb 3155 9a3d
000000a0: 397d 293d c6c9 9f3d 5d80 b93d ca6e 64bc
000000b0: ae36 16bd 0bbd ccbd 35bd 94bd 9bb3 b33d
000000c0: aeb9 91bc 3282 1f3d a92b 91bd b74d cdbd
000000d0: bb1e ce3c cac1 533b 66ca b13d dc5d b4bd
000000e0: 5c24 8cbd fd6c 06bd bb25 9ebd c020 a23c
000000f0: f13b 643d d11f c03d 713b 26bd 1479 ddbd
00000100: b3af 343e 7ff4 ff3d 8143 2b3e f95a 103e
00000110: ee4c e03d 299e d93d 045e 363d 2d83 df3d
00000120: 7a6a bf3d 6386 b03d 978a b83d 6d16 313e
00000130: a528 e03d 2d9e 133c 0fc9 03bd faf6 90bd
00000140: 4d88 a43d a222 e03d 9f30 92bc 7ada 95bd
00000150: 8d40 d6bd 519d 8e3d abf5 983d 85ef 2f3d
00000160: 8780 7e3c a8fc edbc 8936 353e 86b5 853d
00000170: 2aef 163e 825d 0d3e 5de2 223d 1bc1 263e
00000180: c6cc 9c3c 72ec 463d be11 873d baa4 b6bd
00000190: c3d2 a13c 2af6 e63d 776a b0bc 0dc5 98bd
000001a0: 4382 0e3d 3dba 443c 6ad9 d63c 5e91 123e
000001b0: 7a08 423e 721a 67bd b694 c93d 53fa 79bd
000001c0: 45c7 f03d bcb3 68bb 0ae2 873d 6b9d bfbd
000001d0: 0ae6 cdbd f2fb 8c3d 786d 0a3e bda1 01be
000001e0: f872 303e d407 de38 09a0 01bd a8b6 393d
000001f0: d412 c33d e736 f73d 62c8 6b3c 1c60 fd3d
00000200: b675 153d 515d b3bc 0879 a0bb c768 ae3d
00000210: e909 2ebd 7088 213e 2726 073e a960 bdbc
00000220: 0f98 0c3e c5df 45b9 9687 e03c 658c e43d
00000230: b07c babc f358 873d 6ac7 39bd 6f59 693d
00000240: 4a3e a0bc cc23 0c3e 6689 0e3b 18ae c3bd
00000250: acc2 173c cbdc cf3b 6e9b dabc 7859 0b3e
00000260: 05df 853c d208 273e 798a bf3d e9eb f93d
00000270: e011 35bd 4416 1e3d 182c 4ebc bb80 8a3b
00000280: a1a2 3f3e 34ed be3c c9d5 8dbb 189b f53c
00000290: 2d5c d93d 32cc dd3d 0bf6 443c d020 a03c
000002a0: 1bc7 efbc 5148 383d 468b a63d 89d5 41bd
000002b0: 45ea 92bc c93b 5b3d ea92 26bd 65f1 8cbc
000002c0: e222 3b3d 6b24 9cbc 1ad6 db3d 8512 e43d
000002d0: dd2a b6bc f34b f83c 3168 90bd 9c27 743d
000002e0: 8170 cd3c 966a d13d be53 f23d ba18 f23a
000002f0: 463e f23c 6f90 0d3d c83f d73d efd9 edbb
00000300: cb32 94bd 5d2a 0c3c a395 dfbd 46b4 e13d
00000310: 39e1 2e3d 8ee3 eabd 9109 2b3d 28a7 bd3d
00000320: 82e0 eabd 5e3a 2b3d 7956 bdbc adc1 d6bc
00000330: 1dfc 993d 5571 86bc ce6d 1d3d cd8c febd
00000340: bb5c de3d 062b 43bd 130d ffbc ecbe cabd
00000350: ab21 c23d 4762 043d 067f 053d b610 b9bd
00000360: 8141 a73d 9284 d53c 57c6 eb3d 9b29 c43d
00000370: e0a0 35bd fedf 7cbc 9479 08bd f311 753d
00000380: 8c31 e2bd bab7 04be f39c bbbc c70c edbd
00000390: 9508 8dbd 7f6e 3b3d efd3 6cbd f639 5f3d
000003a0: 8515 a13c 6b54 b2bd 657c 92bc 4144 c73b
000003b0: 8e96 05bd cdd9 71bd 1600 ddbd d3ee 83bd
000003c0: 2b31 ad3d 8b9f f5bc d8ef 563d ec0f 723d
000003d0: 5924 e93d 68c0 26bc f245 a63c 9e44 ae3d
000003e0: 7e83 df3b cf80 c8bd 5c3a b43d 8c48 1fbd
000003f0: e5d1 6d3d d88a ba3c 5a4e f0bc eb73 d53d
-0.0014239482 0.087156266 -0.06454455 0.012880582 0.07939932 -0.11641299 0.03114351 0.011941664
-0.017980138 0.061914712 -0.13316718 0.031289447 0.087872975 -0.1387308 -0.14815177 0.041816786
0.09614606 -0.062465206 -0.020530315 0.04152769 -0.11608482 0.0015004753 -0.015298422 -0.02781315
-0.09763162 -0.104800306 0.091149844 0.0022710527 -0.050849207 0.08230175 -0.13032082 -0.040172335
0.058839764 0.006819502 0.048210055 0.0950868 -0.07961174 0.10827913 -0.0020852129 0.0753578
0.041379187 0.07802157 0.090576865 -0.01394243 -0.03667324 -0.099969946 -0.07262651 0.087744914
-0.017788734 0.038942523 -0.07088406 -0.100245886 0.025161138 0.0032311552 0.086811826 -0.08806965
-0.068428725 -0.032818783 -0.0772204 0.019791007 0.055721227 0.093810685 -0.04058403 -0.108141094
0.17645149 0.12497806 0.1672497 0.14097203 0.10952173 0.1062587 0.044523254 0.10913692
0.09346481 0.08619382 0.09010809 0.17293711 0.10945252 0.00900988 -0.032174166 -0.07078357
0.0803381 0.10944106 -0.01784545 -0.07317062 -0.10461531 0.069635995 0.074687324 0.042953033
0.015533573 -0.02905114 0.17696585 0.065287635 0.14739671 0.13805202 0.039766658 0.16284601
0.019140612 0.048565336 0.06595181 -0.08918138 0.01975382 0.11277421 -0.021535141 -0.074594595
0.034792196 0.012007293 0.026226718 0.14313266 0.18948546 -0.056421705 0.098428175 -0.061029743
0.11756758 -0.003550752 0.066349104 -0.09356197 -0.10053642 0.06883992 0.13518322 -0.12659355
0.17231357 0.00010587243 -0.031646762 0.04534021 0.095250756 0.12071019 0.014391037 0.12371847
0.03648921 -0.021895083 -0.0048972405 0.085160784 -0.04248992 0.15774703 0.13198148 -0.02311738
0.13729881 -0.00018870745 0.027408402 0.11159591 -0.022764534 0.066087626 -0.04535619 0.056970056
-0.019560952 0.1368553 0.0021749376 -0.0955469 0.009262722 0.0063434592 -0.026685443 0.13608348
0.016341696 0.16311958 0.093525834 0.122031994 -0.0442065 0.038595453 -0.012583755 0.0042267716
0.18714382 0.023306467 -0.0043284637 0.029981181 0.10613284 0.10829963 0.012021552 0.019546896
-0.029269746 0.04499084 0.08132033 -0.047322784 -0.017933974 0.053523812 -0.040667452 -0.01720495
0.045687564 -0.019060334 0.10734196 0.11136345 -0.022237236 0.030309653 -0.07051123 0.059608087
0.02507806 0.10225408 0.11832379 0.0018470504 0.02957071 0.03456157 0.10510212 -0.0072586457
-0.072362505 0.008555022 -0.10917213 0.110207126 0.042695258 -0.11469184 0.04175717 0.09260398
-0.11468603 0.04180371 -0.023112522 -0.026215399 0.0751879 -0.016411463 0.038434796 -0.12429199
0.10857531 -0.047648452 -0.031134164 -0.09899697 0.09479078 0.032320287 0.032591842 -0.090363905
0.08166791 0.026064191 0.1151244 0.09578248 -0.044342875 -0.015434263 -0.03331907 0.05983157
-0.110446066 -0.12960711 -0.022901988 -0.11574703 -0.068864025 0.045759674 -0.057819303 0.054498635
0.019663582 -0.08707508 -0.017881582 0.0060811345 -0.032614283 -0.0590456 -0.10791032 -0.064420365
0.08456644 -0.029983303 0.052474827 0.059097216 0.11383886 -0.010177709 0.020297024 0.085091814
0.006821095 -0.09790193 0.08800194 -0.038887545 0.0580615 0.022771284 -0.029334236 0.104225

layers.2.bias f4 [32]
00000000: a27a b23d d14f f33d cf95 59bd 3d24 0bbe
00000010: a13f 03be ecea bb3c 4e09 283c f0b0 46bc
00000020: 25dc 2f3d d7ce bb3d f14c 643d d47e 23bd
00000030: 9e29 4a3d 42dd a43d 42e7 753d 5590 9f3d
00000040: 098e ad3c a92f dcbd d0be 8c3d b80b b93d
00000050: b3fc b53d 25d8 bb3c 5c60 253e 1a1f c3b8
00000060: 5919 bd3d 0ec0 8a3d aaa8 313c 0636 fa3d
00000070: 2413 febc 2e8b 123e 6f8a 15bc 8ace 05be
0.087147966 0.11880458 -0.053121384 -0.13588043 -0.12817241 0.022939168 0.010256125 -0.012127146
0.042934556 0.09170311 0.05573744 -0.039915875 0.049356095 0.08050014 0.060034998 0.07791201
0.021185892 -0.10751278 0.06872332 0.09035438 0.08886089 0.022930214 0.1615004 -9.304118e-05
0.0923335 0.06774913 0.010843435 0.122173354 -0.031014986 0.14310905 -0.009127243 -0.1306707

layers.4.weight f4 [1, 32]
00000000: e59b eabd 57af 7e3d fcc6 443e c462 b2bc
00000010: 890f 92bc 45ce 583e 4d44 4b3e 0722 d73b
00000020: 0a7c fa3d 4de6 b33d 63d6 06be 425c bfbd
00000030: a22b d4bc 3d98 09be 33c6 5e3e c558 08be
00000040: 575f e03d 0c51 42bb 0fe4 073e 1bd4 77bd
00000050: 443c 3d3d bc23 aa3d 6d38 403e 887a dfbd
00000060: 63aa 593e 8030 2a3e 7123 673e ffe5 b23d
00000070: f908 f83d 3d81 003e 84b4 16bc 6f6a c5bd
-0.11455516 0.062178936 0.19216532 -0.02177561 -0.017829673 0.21172436 0.19850273 0.0065653357
0.1223069 0.08784161 -0.1316772 -0.09343769 -0.025899712 -0.1343698 0.21755295 -0.13315113
0.10955685 -0.0029650358 0.13270591 -0.060505014 0.046200052 0.08307597 0.18771525 -0.10912043
0.21256404 0.16620064 0.22572114 0.087352745 0.121110864 0.125493 -0.009198312 -0.09639441
